…
"line">        x = F.relu(self.fc2(x))</span><br><span class="line">        <span class="comment"># print(x.shape)</span></span><br><span class="line">        x = self.fc3(x)</span><br><span class="line">        <span class="comment"># print(x.shape)</span></span><br><span class="line">        <span class="keyword">return</span> x</span><br><span class="line"></span><br><span class="line"></span><br><span class="line">net = Net()</span><br><span class="line"><span class="built_in">print</span>(net)</span><br><span class="line"></span><br></pre></td></tr></table></figure><pre><code>Net(  (conv1): Conv1d(1, 64, kernel_size=(11,), stride=(4,))  (pool1): MaxPool1d(kernel_size=3, stride=2, padding=0, dilation=1, ceil_mode=False)  (conv2): Conv1d(64, 128, kernel_size=(3,), stride=(1,))  (pool2): MaxPool1d(kernel_size=3, stride=2, padding=0, dilation=1, ceil_mode=False)  (fc1): Linear(in_features=2816, out_features=1408, bias=True)  (fc2): Linear(in_features=1408, out_features=500, bias=True)  (fc3): Linear(in_features=500, out_features=10, bias=True))</code></pre><figure class="highlight python"><table><tr><td class="gutter"><pre><span class="line">1</span><br><span class="line">2</span><br><span class="line">3</span><br><span class="line">4</span><br><span class="line">5</span><br></pre></td><td class="code"><pre><span class="line"><span class="keyword">import</span> torch.optim <span class="keywor
…
e></figure><pre><code>tensor([[0.1414],        [0.1414]], grad_fn=&lt;AddmmBackward0&gt;)</code></pre><figure class="highlight python"><table><tr><td class="gutter"><pre><span class="line">1</span><br><span class="line">2</span><br><span class="line">3</span><br></pre></td><td class="code"><pre><span class="line"><span class="comment"># 看一下嵌套的网络(用block2构建的，实质用block1嵌套的网络)</span></span><br><span class="line"><span class="built_in">print</span>(rgnet)</span><br><span class="line"></span><br></pre></td></tr></table></figure><pre><code>Sequential(  (0): Sequential(    (block0): Sequential(      (0): Linear(in_features=4, out_features=8, bias=True)      (1): ReLU()      (2): Linear(in_features=8, out_features=4, bias=True)      (3): ReLU()    )    (block1): Sequential(      (0): Linear(in_features=4, out_features=8, bias=True)      (1): ReLU()      (2): Linear(in_features=8, out_features=4, bias=True)      (3): ReLU()    )    (block2): Sequential(      (0): Linear(in_features=4, out_features=8, bias=True)      (1): ReLU()      (2): Linear(in_features=8, out_features=4, bias=True)      (3): ReLU()    )    (block3): Sequential(      (0): Linear(in_features=4, out_features=8, bias=True)      (1): ReLU()      (2): Linear(in_features=8, out_features=4, bias=True)      (3): ReLU()    )  )  (1): Linear(in_features=4, out_features=1, bias=True))</code></pre><p>随机初始化</p><figure class="highlight python"><table><tr><td class="gutter"><pre><span class="line">1</span><br><span class="line">2</span><br><span class="line">3</span><br><span class="line">4</span><br><span class="line">5</span><br><span class="line">6</span><br><span class="line">7</span><br><span class="line">8</span><br><span class="line
…
